final project/final_model.tflite (tflite, 55832 bytes, 12 tensors)

medium_cnn/conv2d_8/BiasAdd;medium_cnn/conv2d_8/Conv2D;medium_cnn/conv2d_8/BiasAdd/ReadVariableOp/resource f4 [32]
00000000: 73d6 403b 8c71 f9ba 221f de3c 6343 e03c
00000010: 3eb2 c9bb e970 0f3c d093 933b 226d 2e3b
00000020: 67fe 40bc 441e d13c 2c83 9b3c 0298 ca39
00000030: 56df 4dbb f64b 0f3c d5c0 843c 5da9 9e3c
00000040: 0690 6bba 65c9 893c d6a3 113c 8147 263c
00000050: d41a 0aba ac6a 243c d8d3 96bb ce88 79bc
00000060: 2ad0 4e3d ac2d 8c3c c325 afba 0e1a 69bc
00000070: 447f dfbc ecf9 25bc fcc7 853a 2151 34bc
0.0029424697 -0.0019031032 0.027114455 0.027375882 -0.0061552813 0.008754947 0.0045037046 0.0026615341
-0.011779404 0.025527127 0.018983446 0.00038641697 -0.0031413636 0.008746138 0.01620523 0.019367868
-0.0008986 0.016819665 0.008889159 0.010148884 -0.000526828 0.010035198 -0.0046028905 -0.015230371
0.05049149 0.017111622 -0.0013362694 -0.014227403 -0.027282365 -0.010130387 0.0010206695 -0.011005671

medium_cnn/conv2d_7/BiasAdd;medium_cnn/conv2d_7/Conv2D;medium_cnn/conv2d_7/BiasAdd/ReadVariableOp/resource f4 [8]
00000000: df61 d9bc 647b 4b3c 27f9 173d 7a21 933c
00000010: d942 ed3c 4f06 a1bb f17e 0bbb 36d7 9e3b
-0.026535926 0.012419555 0.037102845 0.017960299 0.02896254 -0.004914082 -0.002128538 0.0048474325

medium_cnn/conv2d_6/BiasAdd;medium_cnn/conv2d_6/Conv2D;medium_cnn/conv2d_6/BiasAdd/ReadVariableOp/resource f4 [4]
00000000: 400b 063d 7cf5 ad3c b907 243d 29fb bebc
0.032725573 0.02123522 0.040046427 -0.023313122

medium_cnn/conv2d_8/Conv2D f4 [32, 4, 4, 8]
00000000: a423 a5bc 65ef 4f3c 8329 723d f3cc 1b3d
00000010: 133a 68bd 2951 663d 89a7 e5bc 7d37 8c3d
00000020: ca79 5b3c 66cc 97bd d1ec 2a3c 2efe b4bd
00000030: 5172 77bd 3a3b c83d 8d01 2ebb ff50 85bd
00000040: f381 f1bc 1c8f b83c 19bd b43d 1c21 373d
00000050: 3161 d0bc 6bca b8bd 0145 a5bd 5590 a8bd
00000060: 57f4 3abc b2df a33d 3c8b 0cbd db36 02bb
00000070: c374 753c 5f4a bc3d 4bd5 9abd f8bc 87bb
00000080: 7748 c2bd aa9f 853d 1235 a53c af55 c93d
00000090: 18b7 043e f677 14bb 4179 bfbc 7ad2 f6bc
000000a0: 0209 23bd e873 3a3d 5fa5 013e da7a b63d
000000b0: 2b54 c33d 2728 56bd 779e 1dbd 87ce 43bd
000000c0: ee10 513d 4bec 74bd 64b8 4bbd 0341 703d
000000d0: 9497 413d 6db2 3f3c b069 7ebd 7035 573c
000000e0: 73a1 94bd 67dd 8d3d 4bd8 8cbd 2e6b dfbd
000000f0: 0914 dfbd 42d9 043d 3f3b a13d ac4f 063d
00000100: 9cba 5a3d de19 4d3d a93f 8a3d 80da e13a
00000110: b451 8e3d 5e58 aebd 8ba0 9c3d 40d2 713d
00000120: 3cf7 9b3d 0b95 5c3c 830a b23d b725 ecbc
00000130: 87bd 85bd ba17 e0bc 5c14 10bd 2632 79bd
00000140: 50c7 0fbc 6d6c a9bd d9da 3e3d 19b7 eb3c
00000150: e9ce 49bd 9d0d 933d af42 88bc 3308 3bbd
00000160: 7410 a93d 2726 62bc 244c bf3b 980f 1bbc
00000170: af0e bc3d f133 b23b 32be 8dbb dfbf a23c
00000180: cd54 24bd af97 8a3c 0e4b fa3d 5915 683d
00000190: 126f cdbd 66ed 8bbd cb0a 9c3b 58c1 aebd
000001a0: edb1 a43d a3be 68bd e9b6 ea3d 672a df3c
000001b0: a945 74bd 0f28 04bc fd99 22bc 2649 52bb
000001c0: ce6a f33b f001 07bd 983c b4bd 72aa 40bd
000001d0: 3297 65bc bb0c 9f3d f732 483d 9e97 553d
000001e0: c551 c83c eb27 d3bc 3304 c5bd db3c 923c
000001f0: 8779 983d ede1 c23c 3236 95bd 5592 15bd
00000200: 649b 813d abb0 0b3c a818 a93c 9ac9 fe3d
00000210: e09f 583d e6f1 f7bc e4bb 363c 2275 183d
00000220: e9b4 903c 969f 91bd ee65 9dbd 9a18 913b
00000230: 491f 15bd 8c93 8b3d a2fb 6f3d ab40 913d
00000240: c12d d33c 2ccd a53c 2801 60bd 073c b53d
00000250: 0e5a 8b3d 23be 643c 5f1f 7abd 4f03 293c
00000260: 5841 af3d 13de 6bbd d700 fbbc 384f 003e
00000270: d8d6 9ebd 4df6 333d 0f23 013d 4699 403d
00000280: 11a3 72bd 5cf3 d6bd 3585 c4bc 9688 1bbd
00000290: 1e57 8c3d cf9d 4cbd b9c5 193c 237e c63a
000002a0: a705 92bd 479d 993c 67d3 1abd 8221 81bd
000002b0: a55a 1e3d 636b eebc fb18 963c 9931 173d
000002c0: a607 273c bd55 31bd 97e6 b1ba f389 fb3c
000002d0: a021 a8bc c92f 933c 6a4a b13c 9ef1 933d
000002e0: 64cc 953c 8973 e13b ebef 3a3d a917 77bd
000002f0: a75f 56bd 6f1f 72bd 67ad 5e3d 1891 7dbd
00000300: 71e0 64bd 5d1e a43c 7350 2ebd d537 8b3d
00000310: cc74 72bd 10f9 643c 1cf9 d83c 089f 8cbc
00000320: 583e aa3d c200 2b3c 8982 833c 6799 9d3d
00000330: ab6a fa3b 3a0d c03b 821c 7bbc 48ef 013d
00000340: 31b0 d9bc 9b6a 8cbd ca4d 0fbd 9079 cfbd
00000350: fe9f e6bc f262 97bc 0cbb 2bbd debd 87bd
00000360: 74b0 b33d b426 f5bd 16ad 18bd 0340 3bbd
00000370: 9098 aabc f266 df3d b432 0ab8 1267 00bc
00000380: e51a 9cbd 4a21 01bd fbc9 ea3d 5106 8d3d
00000390: 7f69 c23d f74f 2cbd db82 e0bc ca4e 9d3c
000003a0: 4ec2 ae3d 3f9f a0bc f7c4 a73d d6f8 80bd
000003b0: 5d26 ed3d dc37 2ebc ae14 db3d 9fd8 96bc
000003c0: aa2b bf3c 8ee9 ddbd 7c7e daba ab19 c1bd
000003d0: 3e99 f63c 287b bb3d 86cc c7bd 6aa7 493d
000003e0: 800c a13c 9d99 f2bc 541e 3cbd c79e 67bc
000003f0: bc75 7a3d efc8 913d f51c 3bbd e311 12ba
-0.020158596 0.012691353 0.05912162 0.03803725 -0.05669601 0.056229744 -0.028033989 0.06846521
0.013395736 -0.07412033 0.010432438 -0.088375434 -0.060411755 0.097769216 -0.0026551217 -0.065095894
-0.02948091 0.022529177 0.0882513 0.04470931 -0.02543697 -0.09022983 -0.08069802 -0.08230654
-0.011410794 0.08001651 -0.03431247 -0.0019869122 0.014981451 0.09193873 -0.07560214 -0.0041424
-0.09486478 0.06524594 0.020166907 0.09830796 0.1296047 -0.002265451 -0.023373248 -0.03012966
-0.039803512 0.045520693 0.1266074 0.08910151 0.09537538 -0.052284386 -0.038481202 -0.04780438
0.051041536 -0.05979566 -0.049736395 0.05865575 0.047263697 0.011700255 -0.06211251 0.013135299
-0.072573565 0.06926995 -0.06877192 -0.10909115 -0.10892493 0.032433756 0.078726284 0.032790825
0.05340062 0.050073497 0.067504235 0.0017231256 0.069491774 -0.085129485 0.07647809 0.0590384
0.076155156 0.013463269 0.08693411 -0.028826578 -0.0653029 -0.027355064 -0.035175666 -0.06083884
-0.008775547 -0.08272634 0.04659543 0.028773831 -0.04926959 0.07180331 -0.01663336 -0.045662116
0.08255091 -0.013803042 0.005837934 -0.009464167 0.09182488 0.005438321 -0.0043256516 0.019866882
-0.040119935 0.016918031 0.12221347 0.056660984 -0.100309506 -0.068323895 0.004762029 -0.08532971
0.08041749 -0.05682243 0.114606686 0.027241899 -0.059636746 -0.008066191 -0.009924409 -0.0032087057
0.0074285036 -0.032960832 -0.0880062 -0.04703755 -0.014013099 0.077661 0.04887673 0.052146547
0.024453053 -0.02577587 -0.096199416 0.017851284 0.074450545 0.02378937 -0.072857276 -0.036516506
0.063284665 0.008526008 0.02064164 0.12440796 0.052886844 -0.030266713 0.011153195 0.03722108
0.01766439 -0.07110517 -0.07685457 0.0044279816 -0.03640679 0.06815252 0.058589585 0.070924126
0.025778653 0.020239435 -0.054688603 0.0884934 0.06804286 0.013961348 -0.061065074 0.01031573
0.08557385 -0.057584833 -0.030640049 0.1253022 -0.07755822 0.043936063 0.031527575 0.047021173
-0.059237543 -0.10495636 -0.0239893 -0.037972055 0.06852554 -0.049955186 0.00938552 0.0015143793
-0.07129984 0.018751753 -0.037799265 -0.06305219 0.038660664 -0.02910394 0.018322458 0.036912534
0.010194695 -0.043294657 -0.001357275 0.030705428 -0.020523846 0.017967122 0.021641929 0.07223819
0.018285938 0.006880228 0.04563896 -0.0603253 -0.052337315 -0.05911201 0.054364588 -0.06190595
-0.055878107 0.02003401 -0.04255719 0.067977585 -0.059193417 0.013975397 0.026485972 -0.017165676
0.083126724 0.010437192 0.016053455 0.07695275 0.0076421103 0.0058609517 -0.015326621 0.031722337
-0.026573272 -0.06856271 -0.034986295 -0.10130608 -0.028152462 -0.018479798 -0.04192643 -0.06628011
0.0877389 -0.11970273 -0.037274443 -0.045715343 -0.0208247 0.10908307 -3.2948985e-05 -0.007837074
-0.07622317 -0.031525888 0.11464306 0.068859704 0.09492778 -0.042068448 -0.027406147 0.019202609
0.085331544 -0.019607184 0.08191865 -0.06297462 0.11579583 -0.010633435 0.10697304 -0.01841384
0.02333625 -0.10835563 -0.0016669775 -0.09428724 0.030102368 0.091543496 -0.097558066 0.049231924
0.01965928 -0.029614264 -0.04592736 -0.014136977 0.061147436 0.07118403 -0.045681912 -0.00055721233

medium_cnn/conv2d_7/Conv2D f4 [8, 3, 3, 4]
00000000: d310 fb3d 9e85 0fbe d4c4 413e c91d fd3d
00000010: dad8 18be f6fa 6f3e 719e d83d a71e 863e
00000020: 1dec 1cbe 5b66 1fbe c7b2 173d 2748 1dbe
00000030: a233 8b3c f03a 1fbe 0719 093d 0c1b b63d
00000040: b3e8 15be 97dd af3d 807c 77be b824 b5bd
00000050: 61c6 14be 9dbf 29bd 794c dfbd c7ce 663e
00000060: 0ec8 6ebd db3e aa3d 6393 18be b836 f2bd
00000070: 2420 f63d cf66 873e 4931 30be 2b8c 343d
00000080: abc6 133e 6657 52be 4cd5 1dbe 84fd d73d
00000090: 71c2 f539 1ef8 b83d 2d38 ce3d 7b10 e43d
000000a0: 18af 8f3d c193 1b3e 7d0b d53c b9fa 66be
000000b0: 8bca 47be d388 e33c 0aff 223e 6daa 33be
000000c0: faa7 aabd 8284 08bd e573 ba3a 380b 34be
000000d0: b545 343e 162c 643e 5a17 333e 129e 6f3d
000000e0: 086a 13bd 0430 51be d5e3 edbd e3ed edbd
000000f0: f481 503d 5ab0 4d3e 98c4 40be b8aa d03c
00000100: fc8f 38be d663 60be 1485 5b3e 4919 6f3d
00000110: 46a7 5bbe d3ab e1bd d4a1 893c 421e 873e
00000120: be02 3cbe c3dc 4e3e a252 19bd 09c5 05be
00000130: a236 653e bb68 763e 1f9f 853e 1184 d3bd
00000140: d589 cd3d c042 ef3d e584 1cbe f41d 103e
00000150: 3cb1 803e 29bb 8abd 8a7e 223e 859e e33d
00000160: 0da0 303e cb06 1fbe 30e0 563e 5f32 47be
00000170: 1c2f a4bd 3bc4 6fbd b4ad 873e 5c1e a2bc
00000180: 7cef 303e 3196 983d d0e2 7a3c 3383 a4bd
00000190: 2f26 283e a695 863e 1391 96bc a8ee 46be
000001a0: 5639 30be add4 ef3d 4907 893e a94a bebd
000001b0: 65c4 15be 2dd6 00be 069e 16bd 5a83 5f3d
000001c0: bb78 62be 8903 463e bd6e 643e bd58 303d
000001d0: 1093 253e 22a7 94bd 6084 e53d 7a7b 24be
000001e0: c8dc 56bd abdf 3ebe 288e 243e 8b8f df3d
000001f0: 575e e6bc 4674 333e 0ac0 343e 52c4 14be
00000200: d9da 2b3e e32b 59be 2423 2a3e c7e2 1ebe
00000210: 689d 433d 1036 2c3e cd4d d8bd f4d7 b33d
00000220: a415 3bbe 9ed4 a63d 9b89 f93d dd7e 273d
00000230: a024 eabc b8ee 11be dc9d a3bc f659 d73d
00000240: 128b 46be be77 70be 5153 41be b189 ebbd
00000250: 8689 6bbe 9c35 203d acd5 103e a19d 843d
00000260: bb1d 9abd 69e7 4bbe 507a 803d 3599 503d
00000270: 9486 323b f05d 3cbe 6cb0 8bbd d71d 973d
00000280: 4749 18be 9ad7 d8bd d79e 93bc 01ae 4cbe
00000290: c095 3f3e ce6c 343d cbcf 31be 62f4 233e
000002a0: 5d4b bf3d 552c 263e e1cc 6dbe 5df9 52be
000002b0: dda1 4bbe 8482 32be 3e4a 853e eb8c 7bbe
000002c0: 703e 31be 01ae 01bd 6492 5d3e 8718 803e
000002d0: fcad ebbd ab61 3bbe 4e0b 82be 3e5f 2d3c
000002e0: c20c b9bd 6d00 843e 72ff 31be d96a cb3d
000002f0: 7811 c4bb df42 5bbe 6a32 f23c a81a 193e
00000300: e4e6 fa3a 9227 023d 28d3 e33d b262 353e
00000310: 6d37 c73b 98cc 22be a8fe 11be cd0c 1c3e
00000320: 8d76 78be ec1a 0abe f2a5 05be 5173 b53c
00000330: 3592 4cbe 8228 ca3d e64c 32be f142 413e
00000340: 40d7 e63d 6523 3cbe abfd b4bc f8a4 de3c
00000350: e280 0a3e 00a4 d83d 3e4f 133e 3cb6 5d3e
00000360: 8ed6 1eba f96c 98bc bbb6 f8bc 9f8a 743e
00000370: 7e86 f1bd 9757 443e a859 64be 63ac 0e3c
00000380: 1243 f1bd 505d 32be 1899 b0bd 0095 16be
00000390: e74b cd3d 95f7 acbd 81c8 8a3d 8957 e8bd
000003a0: 95f8 87bd b818 853e 8867 2d3e 5ed4 7fbe
000003b0: 74c2 81bd 4352 90bd 02df a3bd 720a bebd
000003c0: 08f9 3bbd 5eb3 583e 0a12 d53c 7fe9 53bc
000003d0: ec37 9fbd aa26 103e 2545 343e a4ab 6bbe
000003e0: b310 3a3e ca67 603e 88b1 513e 795c 973d
000003f0: 4cdf 223e 6201 423e 77ef 283e fc8e 8a3d
0.12259068 -0.14015815 0.1892274 0.12359197 -0.14926472 0.23435578 0.10577095 0.2619526
-0.15324445 -0.1556639 0.03703573 -0.15359555 0.016992394 -0.15549827 0.033471134 0.088918775
-0.14639549 0.08587187 -0.24168587 -0.08844894 -0.145288 -0.041442502 -0.10903258 0.22539817
-0.058296256 0.0831277 -0.14899974 -0.11826843 0.12017849 0.26445624 -0.17206301 0.044078987
0.14431255 -0.20541152 -0.15413398 0.10546401 0.00046874912 0.090316996 0.100693084 0.11135956
0.07015818 0.15193082 0.026006455 -0.2255658 -0.19510858 0.027775204 0.15917602 -0.17545481
-0.0833282 -0.033329494 0.0014225213 -0.17582405 0.17604716 0.22282442 0.17489377 0.058500357
-0.03598979 -0.20428473 -0.11615721 -0.11617639 0.050905183 0.20086804 -0.18824995 0.02547203
-0.18023676 -0.21913084 0.21437484 0.058373723 -0.21450529 -0.11019101 0.016800798 0.26390272
-0.18360421 0.20201401 -0.03743232 -0.13063444 0.22384122 0.24063389 0.26097962 -0.10327924
0.10036055 0.116826534 -0.1528507 0.14073926 0.2513522 -0.06773979 0.15868583 0.111142196
0.17248555 -0.15529935 0.20983958 -0.19452809 -0.08016798 -0.05853675 0.26499712 -0.019789867
0.17278856 0.07450522 0.015312865 -0.08032837 0.16420816 0.26286048 -0.018379724 -0.19426978
-0.17209372 0.117104866 0.2676337 -0.09291584 -0.146257 -0.12581702 -0.036771797 0.054568626
-0.22116368 0.19337286 0.22307868 0.043053377 0.16169381 -0.072584406 0.11206889 -0.16062728
-0.052456647 -0.1864001 0.16069853 0.109160505 -0.028121157 0.17524824 0.17651382 -0.14528015
0.16782703 -0.21208148 0.16614968 -0.15516196 0.047757536 0.16817498 -0.10561714 0.08781424
-0.18269974 0.08146022 0.12184449 0.04089247 -0.028581917 -0.1425122 -0.019972734 0.105152056
-0.19388989 -0.23483178 -0.18879439 -0.11500872 -0.2300168 0.039113626 0.1414401 0.06475378
-0.07525202 -0.19912495 0.06273329 0.05092736 0.002724086 -0.1839521 -0.06820759 0.073787384
-0.14871703 -0.10587998 -0.018020077 -0.19988252 0.18709469 0.044049077 -0.17364423 0.16011193
0.09340546 0.16227849 -0.23222686 -0.20602937 -0.19885965 -0.174326 0.26033205 -0.24565475
-0.17308974 -0.031660084 0.21637875 0.25018713 -0.11507794 -0.18298976 -0.2539925 0.01058179
-0.090356365 0.25781575 -0.17382601 0.09932489 -0.0059835277 -0.21412228 0.029565055 0.14951575
0.0019142297 0.03177602 0.11124259 0.1771343 0.0060796053 -0.15898359 -0.142573 0.15239258
-0.24263974 -0.13486832 -0.13051584 0.022149714 -0.19977649 0.098710075 -0.17412147 0.18873192
0.112715244 -0.18372877 -0.022093615 0.027178273 0.13525727 0.105781555 0.14385697 0.21651548
-0.0006059193 -0.01860665 -0.03036057 0.23881005 -0.117932305 0.19174038 -0.22299826 0.008708092
-0.11780371 -0.17418408 -0.0862295 -0.14705276 0.10024243 -0.0844566 0.06776524 -0.11344821
-0.0663921 0.2599542 0.16934025 -0.24983355 -0.06335917 -0.0704694 -0.0800152 -0.09279336
-0.04589179 0.21162173 0.026009578 -0.012934088 -0.07774338 0.14077249 0.17604502 -0.23014694
0.18170433 0.21914592 0.20477879 0.07390685 0.15905493 0.1894584 0.16497599 0.06765553

medium_cnn/conv2d_6/Conv2D f4 [4, 3, 3, 1]
00000000: b276 5cbe 38ed 963e fa13 96be 5a75 2bbd
00000010: 0b9c 433d 6da8 8cbe 1984 86bd 29fc 273c
00000020: 097e 8abd 1873 fe3d 8723 b13d 2f10 88be
00000030: 117e b23e d7c3 6ebe 6376 e4bd cbd3 97be
00000040: 7362 bd3e e274 5bbe 104f 19be 52e3 38be
00000050: d6ab 303e e755 fcbd a9c9 43be fdb0 a03e
00000060: 89c2 9c3d 5bda 4cbe c758 853d 5f09 9cbe
00000070: 9c1a ac3e 6517 d3bd 3ab4 ab3e 7c68 6f3d
00000080: 65b9 643e 3fd4 363e 8659 723e 0aad 3bbe
-0.21529654 0.2947786 -0.29312116 -0.041859962 0.047756236 -0.2747225 -0.065681644 0.010252991
-0.067623205 0.12424296 0.086493544 -0.26574847 0.34861806 -0.23316894 -0.11155393 -0.29653773
0.36989173 -0.21431306 -0.14971566 -0.18055466 0.1725305 -0.12321072 -0.19119896 0.3138503
0.07654292 -0.20005171 0.065110736 -0.304759 0.3361405 -0.103071965 0.3353594 0.058449253
0.22336347 0.17854403 0.23666963 -0.18327728

medium_cnn/dense_4/BiasAdd/ReadVariableOp/resource f4 [64]
00000000: fd51 2f3c 5060 44bc 27e3 c43b efe8 d4bb
00000010: eb06 673c 407f a0bb b5d8 8b3b 815f b13c
00000020: b6e1 32bc 78d6 163c 1085 c03c d32b 48bb
00000030: 1a2d 90bb efda 9a3c 550c 6dbb a178 8dbb
00000040: 9fcd 00bc 6816 483c 617e 103c b093 2eba
00000050: 1d56 0f3c 7a05 ae3c 99a7 0f3c 2f25 203c
00000060: feb9 693c cda2 423b 0000 0000 0000 0000
00000070: cc48 493c 03c6 5a3c 068d 16bc f866 963b
00000080: 88f5 c2bb 0000 0000 1b4f 05bb d00c 7abb
00000090: 7832 88bb 2199 803c ee20 afbb 9407 98bb
000000a0: eb59 cf3b 717f 5d3c 02d0 7fbb b385 d8bb
000000b0: 2f79 73bb fcc0 6ebb 31c4 c7b9 6a39 c638
000000c0: 2c7b 0d3c 67a0 c4bb 6a76 243b 7d82 123b
000000d0: f296 b63c ad26 9fbb 911d fcbb 60fc 16bc
000000e0: 5d36 943b 7bd9 90bb 25d7 323b 689a 28bc
000000f0: 7729 dcbb 1bce 613c f8ad ae3c 8433 d8bb
0.0107007 -0.011985853 0.006008524 -0.0064974944 0.0141007705 -0.004897982 0.004267777 0.021651985
-0.0109180715 0.009206407 0.02350095 -0.00305437 -0.004399908 0.018903224 -0.003617068 -0.0043173586
-0.007861524 0.012212373 0.008819194 -0.00066595804 0.008748558 0.021242846 0.008767986 0.00977449
0.014265535 0.0029699088 0.0 0.0 0.0122854225 0.013352874 -0.009188896 0.0045899116
-0.0059496798 0.0 -0.002034134 -0.003815461 -0.004156407 0.015698018 -0.0053445017 -0.0046395753
0.0063278577 0.013519154 -0.0039033894 -0.006607735 -0.0037151088 -0.0036430946 -0.00038102412 9.45207e-05
0.0086353235 -0.0060005668 0.0025094994 0.002235561 0.022288773 -0.0048569054 -0.0076939543 -0.009215444
0.004523082 -0.004420457 0.002728888 -0.01029072 -0.00671881 0.0137820495 0.02132319 -0.006597938

medium_cnn/dense_5/BiasAdd/ReadVariableOp/resource f4 [2]
00000000: 8709 09bc 8909 093c
-0.008364088 0.00836409

medium_cnn/batch_normalization_2/FusedBatchNormV3 f4 [8]
00000000: c299 b8be 31d6 8fbd 08a6 6dbd 223f 00be
00000010: efa4 e2bd 8763 42bf 338b e6bc 7145 40be
-0.36054808 -0.07023276 -0.058019668 -0.12524083 -0.11066615 -0.75933117 -0.028142547 -0.1877649

medium_cnn/batch_normalization_2/FusedBatchNormV31 f4 [8]
00000000: 5c0b 3d40 1f98 4540 73cf 4640 cd0b 4140
00000010: c2ac 4140 f382 2e40 c1b4 4140 18e9 4140
2.9538183 3.0874097 3.1064117 3.0163453 3.0261693 2.7267425 3.0266573 3.029852

medium_cnn/dense_4/MatMul f4 [64, 128]
00000000: 9971 6f3c 7634 043e e3d8 8bbc 8123 283e
00000010: 557c 80bd 55b6 003e 1416 353d fe3a d93d
00000020: d4eb b1bc 8e4a a2bd 5b39 7c3d 48c9 5bbd
00000030: dabd 473c 12a3 af3d eb3e 11be fdda 1d3e
00000040: 6b2b 173d e171 5d3d d141 3e3e 76b7 023a
00000050: 0119 e2bd f3fa 123e b4d6 f5bd 231c af3d
00000060: a235 03be c115 c63d 900f 143d 657a a0bc
00000070: 6f0b 31be 1fb3 62ba 0a26 c0bc d63b 223e
00000080: 2e61 f7bd d834 c73d edf7 f73c e340 4ebd
00000090: 1c5d 6e3c be1a 6e3d 5f80 8d3d 79dd b3bd
000000a0: ec5f 91bd a994 c23d 233b b7bd 614e a9bb
000000b0: 18ab 343e 2366 1b3e 9599 863d 6997 ed3d
000000c0: ac1c 09bd e567 303e fc47 173e dbec 033e
000000d0: 8c83 18be 882f 18be b31b a53c 4bdf 28be
000000e0: 5f6f efbd c6dc 293e e321 0a3e 55e8 74bc
000000f0: 9ee6 153d 94dc b6bd ab5e 123d 15f9 3aba
00000100: 5537 c43d 072a 2cbe 89d4 a93d 4f32 343d
00000110: 7cc7 c8ba e1ef 34be 77b8 a93d d0be 153e
00000120: 96fa bd3d 3dcb e8bd 2d1d 713d a67f e1bd
00000130: 269a 21bd 91b7 983d b7a6 483b 6139 213e
00000140: 9736 debd b317 283e c01c 6cbd 4a0f f2bd
00000150: cd99 ed3d f698 053e 12bc 1dbe 03ab 0cbe
00000160: 4f95 9fbc 74c5 113e 8cc2 a13d 0b0c 893d
00000170: d416 20bd 31ba 703d 6db5 a5bd 77d7 1f3b
00000180: 4b79 0cbe 4d16 cebc bc10 04be 7cd4 41bc
00000190: 674a 16be bf2c 1abe 6523 31be eea5 2fbc
000001a0: b884 143d dd52 1b3e baaf 5b3c 72b8 29bd
000001b0: 9725 243e fd35 003e 624c fa3d f30c 4abc
000001c0: 0c38 cb3d 0502 5b3d 5cf1 a8bd 27aa 18be
000001d0: 21c0 b4bd 9b83 ec3d f6d7 15bd 5ab2 933d
000001e0: 0584 173e f955 7d3d 46ea 3a3e 8106 5d3d
000001f0: 4da9 93bc d074 85bd df0e b0bd 2a4f 21be
00000200: 0ca2 02be 188d 8b3c 1391 7c3b 4a36 00be
00000210: 8b69 8ebd 3558 35bb 9b69 aabd f508 74bd
00000220: 5948 033e 769b 69bc 6656 6f3d 5ea7 43bd
00000230: 2892 553d 0522 d7bd 00ac d93d a443 d9bc
00000240: 82a5 413c bdce 39bd 06ce 7f3c 5cee 373c
00000250: ec30 e63c a49e 163e b75c b0bd 8e1b 383d
00000260: 561c 033e 38a2 04be 992a ecba 8201 0c3d
00000270: 53e8 a7bd cfb7 12be b387 243b 55a2 d2bd
00000280: 74ee a03d 78d2 ecbc 8e34 ac3d 786b 26be
00000290: 4e36 d13d 8424 58bd ec6d c03d 0ebc 24bd
000002a0: e863 1bbd 3f52 c1bd ca56 fbbd 54c1 003c
000002b0: a1c2 c23d 8917 8b3d b2a8 a93d 74f0 2c3d
000002c0: 2b9d 8a3d 79eb 373d f28d 2abd 87c6 9b3c
000002d0: 9f2e dfbd 2cfd ea3c e6f4 1abe cd33 473a
000002e0: 751e 143e 8da9 15be 0a07 9ebd 21ee f03d
000002f0: f33c 0f3e 1b70 15be df02 063e e089 fbbc
00000300: 188b 143e 6153 f3bc 7a94 133e 2eb4 cebc
00000310: a4bd c3bd ad70 843d 1df0 07bd 9fd5 8e3d
00000320: ee10 913d ff6a 00be 7978 6a3d 65ce 6a3d
00000330: fd88 523b a9aa 80bd ce5b 143e 9ecb 12be
00000340: ae97 cdbd 3d2d 46be c1ea 1bbd faff 30be
00000350: 5cfb 14be 7282 043e 47dd 16be 77f5 dbbd
00000360: 05a2 bd3d 9cdf 1d3e 6bf5 b83d 73ed d53d
00000370: f5b1 b4bc 9a0a ab3d 4f30 adbd ccca 13be
00000380: 24fa 25be aa30 0c3e 64b6 19be 6444 763d
00000390: bcae 1d3e 1e37 efbd 0352 343e cc8e 79bd
000003a0: a9b6 ed3d c639 a53d 7617 a9bd ce95 c23c
000003b0: 5ff8 c43d 6660 e2bd 2033 263e 11e8 8c3d
000003c0: 8932 f93d 6db6 25be ac6b ed3b 1e6c 2d3d
000003d0: 521e 803d f11d 573c e7d2 3b3d 2ffe edbb
000003e0: f30c c9bd 65bb b73d 9282 c23d e52e f13d
000003f0: cd4d fcbd 325a f6bd 8105 1f3c 61e5 d6bd
0.014614486 0.12910637 -0.017071193 0.16419794 -0.062737145 0.12569554 0.04421051 0.10606955
-0.021718897 -0.079243764 0.061578136 -0.053658754 0.01219126 0.08576025 -0.14184158 0.15415569
0.03690664 0.05406368 0.18579794 0.0004986444 -0.11039925 0.14353542 -0.12003842 0.085502885
-0.12813428 0.09672118 0.036147654 -0.019589612 -0.17289518 -0.0008647907 -0.023455638 0.15843138
-0.120790824 0.09726876 0.030269587 -0.05035485 0.014548566 0.058130972 0.069092505 -0.08782477
-0.07098374 0.09501011 -0.08946826 -0.005166814 0.17643392 0.15175681 0.06572262 0.11601145
-0.03347461 0.17227133 0.14773554 0.12883322 -0.14893931 -0.14861882 0.02015481 -0.1649143
-0.11691164 0.16588125 0.1348949 -0.01494797 0.036596887 -0.08928791 0.035734814 -0.0007132453
0.09580866 -0.16812907 0.08292491 0.04399329 -0.001531824 -0.17669632 0.08287137 0.1462357
0.09276311 -0.113668896 0.058865715 -0.11010675 -0.039453648 0.074568875 0.0030616948 0.15744545
-0.10850256 0.1641529 -0.057644606 -0.118193224 0.11601601 0.13046631 -0.15403774 -0.13737111
-0.019480376 0.14235479 0.07898435 0.0669175 -0.03908427 0.058771316 -0.08091245 0.0024389902
-0.13718145 -0.025157118 -0.12897009 -0.011830445 -0.1467682 -0.15056132 -0.17298658 -0.010720713
0.036259383 0.15168329 0.013408596 -0.041435666 0.16029964 0.12520595 0.122216 -0.012332189
0.099227995 0.053468723 -0.08249161 -0.14908658 -0.08825708 0.11548539 -0.03658291 0.07211752
0.14796455 0.061849568 0.1825343 0.05396128 -0.018025065 -0.06516421 -0.085965864 -0.15752855
-0.12757128 0.017035052 0.003853862 -0.1252071 -0.069537245 -0.0027670984 -0.08320924 -0.059578855
0.12820567 -0.014258256 0.058432005 -0.047767036 0.05214134 -0.105045356 0.106285095 -0.026521511
0.011819245 -0.045363177 0.015613085 0.011226263 0.0280995 0.14708954 -0.08611434 0.044948153
0.12803778 -0.12952507 -0.0018018066 0.034181125 -0.08198609 -0.1432793 0.0025105297 -0.10284869
0.07857981 -0.028908953 0.084084615 -0.16251934 0.10215436 -0.0527692 0.09395966 -0.040218405
-0.037937075 -0.09439515 -0.12272413 0.007858593 0.09509779 0.06791598 0.08284129 0.0422215
0.06768259 0.0449023 -0.041639276 0.019015564 -0.10897564 0.028685175 -0.15132484 0.00075989665
0.14464743 -0.1461546 -0.07716186 0.117641695 0.13988094 -0.14593546 0.13087033 -0.030705392
0.14506185 -0.029702844 0.14412108 -0.0252324 -0.095576555 0.06466804 -0.033187974 0.06974339
0.07083307 -0.12540816 0.057243798 0.05732574 0.0032125108 -0.06282551 0.14488146 -0.14335486
-0.10038696 -0.19353195 -0.038065676 -0.17285147 -0.14549011 0.12940386 -0.14732848 -0.10740178
0.092594184 0.15417331 0.09031185 0.104456805 -0.022057513 0.083516315 -0.0845648 -0.1443283
-0.16208702 0.13690439 -0.15010983 0.060123816 0.15398687 -0.11680435 0.1760941 -0.060927197
0.11607105 0.0806766 -0.08256428 0.023753073 0.096176855 -0.11053543 0.1623044 0.06880201
0.12167842 -0.16182871 0.0072455015 0.042339437 0.06255783 0.013129697 0.04585543 -0.007262967
-0.09816923 0.089712895 0.094975606 0.117765225 -0.12319527 -0.12028922 0.009705902 -0.10492969

medium_cnn/dense_5/MatMul f4 [2, 64]
00000000: f476 0abe 5252 823e d095 e0bd e3b4 82be
00000010: fb51 90be 09ac 253e 9c31 2b3d 8dc9 b5be
00000020: cbb3 1e3e 419c efbd 843b 4bbe ef35 1dbe
00000030: 489e 3d3e 69c2 b0be 5b8e 083d 2e6f 0dbe
00000040: e4ca 893e b8f4 1dbe f798 bcbd 2ed0 013d
00000050: 898b c6bd 4312 99be 82b9 003c 2baf 68be
00000060: 5d93 3fbe 880d a43e 0078 fc3a c465 9abd
00000070: 1a46 b53e f7c5 293e 9d74 43bd f4f2 f3bd
00000080: 3ef2 053e 206d 8ebd 349a 73bd f259 633e
00000090: a454 0ebe 5f48 20bd e03c 8d3e b7e5 af3e
000000a0: 6839 f2bc 3cc5 60be 66f8 973e 1a14 913e
000000b0: 7d97 f4bd bd84 3fbd 05c0 133d 73e3 713e
000000c0: 8e42 97bd ffab 3d3d cabb 8cbe dc2b 7a3e
000000d0: 627b 6bbe 0c28 323e a85a 933e a9ff 693c
000000e0: b0a1 963e e1c6 a43e 7c86 f43d 308b 84be
000000f0: c74a 343e 58f1 bdbc 08ef a8bd 0419 993d
00000100: 237f 993e 68de 7a3e 062d 183e 0637 913d
00000110: 0715 963e 8c0c 6a3d 6ee1 febc 882e 703e
00000120: 6530 a03d dbee 6a3e 6248 4e3e 4aac 473d
00000130: 5519 2abe 0938 22bd 85c2 99be b254 97be
00000140: 6dff 90bb 9847 c13d 68dc f53d 0adb b23d
00000150: a3b6 383e 7caf 36be 4399 a53e 6d42 8d3e
00000160: 1460 873d c91e e6bd 5c07 973e e855 9c3d
00000170: 2ba1 a4be 5091 96be 2ca8 fbbd 2426 a4be
00000180: afff 6abd 784e 063e a406 20bd 7fd3 a4be
00000190: 8b18 4bbe dda9 393e 3638 71be 68f0 2abe
000001a0: fa5a a73e 6d3b 5f3d 678d 533e ae53 4fbe
000001b0: b9ee 903d d541 393d 91b0 4d3e 0c9f 6cbb
000001c0: e7a0 523e b087 1fbe 1291 a6bd 0715 8abd
000001d0: 8d2b 4abc ee86 73be 9eaa 51be 9c8c 20bd
000001e0: 115a 5dbe b885 19be e902 94be abe9 a03a
000001f0: d7a4 a6bc 9ddc 8f3e c40d 3a3e 1395 1e3c
-0.1352194 0.2545343 -0.109660745 -0.2552863 -0.28187546 0.16178907 0.041795358 -0.35505334
0.15498273 -0.11699725 -0.19846922 -0.15352605 0.18517411 -0.34523323 0.033338886 -0.13811943
0.26912606 -0.15425384 -0.09208863 0.031692676 -0.09694583 -0.29896745 0.0078567285 -0.22723071
-0.18708558 0.32041574 0.0019261837 -0.075389415 0.35405046 0.16579424 -0.047718633 -0.11911574
0.1308069 -0.06954408 -0.05947323 0.2220228 -0.13899475 -0.03913152 0.27585506 0.34354946
-0.029568389 -0.21950239 0.296817 0.2833565 -0.119429566 -0.04675745 0.036071796 0.23621921
-0.07385741 0.046306606 -0.27487022 0.24430794 -0.22996286 0.17398089 0.28780103 0.014282146
0.29420233 0.32182983 0.11939713 -0.25887442 0.1760665 -0.02318637 -0.082487166 0.074754745
0.2997981 0.24498904 0.14860925 0.07090573 0.29312918 0.057140872 -0.031113353 0.2345525
0.078217305 0.22942679 0.201448 0.048748292 -0.16611226 -0.03960422 -0.3003122 -0.29556805
-0.0044249804 0.094374835 0.1200493 0.08733185 0.1803842 -0.1784038 0.32343492 0.2758974
0.06610122 -0.112363406 0.29497802 0.07633573 -0.3215421 -0.2940774 -0.122879356 -0.3206035
-0.057372745 0.13115871 -0.039068833 -0.3219261 -0.19833581 0.18131204 -0.23556599 -0.1669327
0.32686597 0.054500032 0.2065941 -0.20246765 0.07076783 0.045228798 0.20086886 -0.0036105542
0.20569192 -0.15579104 -0.08133139 -0.06742292 -0.012339485 -0.2378194 -0.20475242 -0.039196596
-0.21616389 -0.14992416 -0.2890847 0.001227667 -0.020342274 0.28098002 0.18169314 0.009679097
