project 1/project1_model.tflite (tflite, 10664 bytes, 3 tensors)

simple_cnn/conv2d/Conv2D i1 [4, 3, 3, 1]
0	0x36	54
1	0x43	67
2	0xd0	-48
3	0x8d	-115
4	0xcf	-49
5	0x93	-109
6	0x7f	127
7	0x63	99
8	0x14	20
9	0x00	0
10	0x7c	124
11	0x14	20
12	0x10	16
13	0xa7	-89
14	0x97	-105
15	0x22	34
16	0x7f	127
17	0x3f	63
18	0x6e	110
19	0x73	115
20	0xc8	-56
21	0x3a	58
22	0xf3	-13
23	0x19	25
24	0x1d	29
25	0x81	-127
26	0x43	67
27	0xb0	-80
28	0x55	85
29	0x40	64
30	0x68	104
31	0x7f	127
32	0x7e	126
33	0x59	89
34	0x03	3
35	0x73	115

simple_cnn/dense/MatMul i1 [4, 1748] scale=0.0008147825 zero_point=0
0	0x17	0.018739998
1	0xf3	-0.010592173
2	0xd2	-0.037479997
3	0x30	0.03910956
4	0x22	0.027702605
5	0xff	-0.0008147825
6	0xe9	-0.018739998
7	0xc8	-0.04562782
8	0xde	-0.027702605
9	0xb1	-0.064367816
10	0xc0	-0.05214608
11	0x09	0.0073330426
12	0xec	-0.016295651
13	0xc6	-0.047257386
14	0x11	0.013851303
15	0xc9	-0.044813037
16	0xfc	-0.00325913
17	0x14	0.016295651
18	0x3c	0.04888695
19	0xfc	-0.00325913
20	0x3f	0.051331297
21	0x00	0.0
22	0x12	0.014666085
23	0xcd	-0.041553907
24	0x3f	0.051331297
25	0xb3	-0.062738255
26	0xed	-0.015480868
27	0xd6	-0.034220867
28	0x24	0.02933217
29	0x25	0.030146953
30	0xf2	-0.011406955
31	0x0f	0.012221738
32	0x32	0.040739127
33	0x1a	0.021184346
34	0xe6	-0.021184346
35	0x1d	0.023628693
36	0xbb	-0.056219995
37	0xde	-0.027702605
38	0xf7	-0.0073330426
39	0xc3	-0.04970173
40	0x3f	0.051331297
41	0x18	0.01955478
42	0xbc	-0.05540521
43	0xc3	-0.04970173
44	0x3d	0.04970173
45	0xb9	-0.05784956
46	0xcd	-0.041553907
47	0xb8	-0.05866434
48	0x47	0.05784956
49	0xdd	-0.028517388
50	0xf4	-0.00977739
51	0xc9	-0.044813037
52	0x2a	0.034220867
53	0xbb	-0.056219995
54	0x27	0.031776518
55	0x1e	0.024443476
56	0xd5	-0.035035647
57	0xd4	-0.03585043
58	0xe1	-0.025258258
59	0x39	0.0464426
60	0x1c	0.02281391
61	0xf4	-0.00977739
62	0xf6	-0.0081478255
63	0x15	0.017110433
64	0xc7	-0.0464426
65	0x37	0.044813037
66	0xc4	-0.04888695
67	0xdb	-0.030146953
68	0x4f	0.064367816
69	0xb7	-0.059479125
70	0xc3	-0.04970173
71	0xe0	-0.02607304
72	0xbb	-0.056219995
73	0x0e	0.011406955
74	0xf0	-0.01303652
75	0xc4	-0.04888695
76	0xf8	-0.00651826
77	0xfd	-0.0024443476
78	0xd7	-0.033406083
79	0xcd	-0.041553907
80	0xb6	-0.060293905
81	0xf1	-0.012221738
82	0x39	0.0464426
83	0xb2	-0.063553035
84	0xff	-0.0008147825
85	0xf6	-0.0081478255
86	0xf9	-0.0057034777
87	0x10	0.01303652
88	0x30	0.03910956
89	0xfe	-0.001629565
90	0xf8	-0.00651826
91	0x0e	0.011406955
92	0xd5	-0.035035647
93	0x0f	0.012221738
94	0xcd	-0.041553907
95	0x21	0.026887823
96	0x1c	0.02281391
97	0x35	0.043183472
98	0x33	0.041553907
99	0x06	0.004888695
100	0xe4	-0.02281391
101	0xc2	-0.050516516
102	0xf1	-0.012221738
103	0x2f	0.038294777
104	0xe2	-0.024443476
105	0x3f	0.051331297
106	0x3f	0.051331297
107	0x05	0.0040739127
108	0xcc	-0.04236869
109	0xfe	-0.001629565
110	0x1a	0.021184346
111	0xcd	-0.041553907
112	0x13	0.015480868
113	0xde	-0.027702605
114	0x19	0.020369563
115	0xc2	-0.050516516
116	0xec	-0.016295651
117	0x27	0.031776518
118	0x02	0.001629565
119	0x1f	0.025258258
120	0xfd	-0.0024443476
121	0xc1	-0.051331297
122	0x05	0.0040739127
123	0x04	0.00325913
124	0xec	-0.016295651
125	0xff	-0.0008147825
126	0xc7	-0.0464426
127	0xbb	-0.056219995
128	0xe9	-0.018739998
129	0x10	0.01303652
130	0xed	-0.015480868
131	0x09	0.0073330426
132	0xda	-0.030961735
133	0xd6	-0.034220867
134	0xc5	-0.048072167
135	0xdf	-0.026887823
136	0x38	0.04562782
137	0x1c	0.02281391
138	0x21	0.026887823
139	0xdd	-0.028517388
140	0x3b	0.048072167
141	0xd4	-0.03585043
142	0xc7	-0.0464426
143	0x33	0.041553907
144	0xd0	-0.03910956
145	0x0e	0.011406955
146	0x1c	0.02281391
147	0x1d	0.023628693
148	0xd3	-0.036665212
149	0xf2	-0.011406955
150	0x1f	0.025258258
151	0xd5	-0.035035647
152	0xec	-0.016295651
153	0xd1	-0.038294777
154	0xca	-0.043998256
155	0xea	-0.017925216
156	0xde	-0.027702605
157	0xd6	-0.034220867
158	0x1b	0.021999128
159	0x40	0.05214608
160	0xcb	-0.043183472
161	0xe9	-0.018739998
162	0xe0	-0.02607304
163	0xeb	-0.017110433
164	0xb7	-0.059479125
165	0xcb	-0.043183472
166	0xf2	-0.011406955
167	0xb6	-0.060293905
168	0x24	0.02933217
169	0xe2	-0.024443476
170	0xed	-0.015480868
171	0xbe	-0.053775646
172	0x44	0.05540521
173	0xe3	-0.023628693
174	0xba	-0.057034776
175	0x35	0.043183472
176	0x02	0.001629565
177	0xe8	-0.01955478
178	0x26	0.030961735
179	0x31	0.039924342
180	0xd5	-0.035035647
181	0x2f	0.038294777
182	0xb9	-0.05784956
183	0xbc	-0.05540521
184	0x29	0.033406083
185	0x31	0.039924342
186	0xf0	-0.01303652
187	0xca	-0.043998256
188	0xce	-0.040739127
189	0xf7	-0.0073330426
190	0xbd	-0.05459043
191	0x24	0.02933217
192	0x35	0.043183472
193	0xc4	-0.04888695
194	0x2c	0.03585043
195	0x3a	0.047257386
196	0xd8	-0.032591302
197	0x46	0.057034776
198	0x06	0.004888695
199	0x2f	0.038294777
200	0xfb	-0.0040739127
201	0x00	0.0
202	0x37	0.044813037
203	0xed	-0.015480868
204	0x3b	0.048072167
205	0xe6	-0.021184346
206	0xd6	-0.034220867
207	0x35	0.043183472
208	0xbd	-0.05459043
209	0x19	0.020369563
210	0x2a	0.034220867
211	0xb9	-0.05784956
212	0x26	0.030961735
213	0xbc	-0.05540521
214	0xd9	-0.031776518
215	0x34	0.04236869
216	0xd6	-0.034220867
217	0x43	0.05459043
218	0x32	0.040739127
219	0x43	0.05459043
220	0x33	0.041553907
221	0xcb	-0.043183472
222	0x1b	0.021999128
223	0xea	-0.017925216
224	0xfa	-0.004888695
225	0xbb	-0.056219995
226	0x37	0.044813037
227	0xdf	-0.026887823
228	0xf4	-0.00977739
229	0xe5	-0.021999128
230	0xd2	-0.037479997
231	0xd4	-0.03585043
232	0xc5	-0.048072167
233	0x23	0.028517388
234	0x13	0.015480868
235	0xc0	-0.05214608
236	0x29	0.033406083
237	0x22	0.027702605
238	0xca	-0.043998256
239	0x17	0.018739998
240	0xfc	-0.00325913
241	0x2b	0.035035647
242	0x2b	0.035035647
243	0x06	0.004888695
244	0xd5	-0.035035647
245	0x37	0.044813037
246	0xf3	-0.010592173
247	0x1a	0.021184346
248	0xd8	-0.032591302
249	0x2e	0.037479997
250	0x2b	0.035035647
251	0x05	0.0040739127
252	0x03	0.0024443476
253	0xf0	-0.01303652
254	0xd5	-0.035035647
255	0x17	0.018739998

simple_cnn/dense_1/MatMul i1 [2, 4] scale=0.003648877 zero_point=0
0	0x7f	0.46340737
1	0x21	0.12041294
2	0x8a	-0.43056747
3	0x3e	0.22623037
4	0xad	-0.30285677
5	0xe8	-0.087573044
6	0xdc	-0.13135956
7	0x72	0.41597196
